…
PyDev console: using IPython 7.30.1
Python 3.7.11 (default, Jul 27 2021, 07:03:16)
[Clang 10.0.0 ] on darwin
runfile('/Volumes/Riesling/TRAIN/Torch-base/src/BiLSTM_CRF/main.py', wdir='/Volumes/Riesling/TRAIN/Torch-base/src/BiLSTM_CRF')
-----------------------------------------------------------------------------------------------------------
               Layer (type)                                    Input Shape         Param #     Tr. Param #
===========================================================================================================
                Embedding-1                                      [100, 32]         180,300         180,300
                     LSTM-2     [100, 32, 300], [2, 32, 256], [2, 32, 256]       1,142,784       1,142,784
                     LSTM-3     [100, 32, 512], [2, 32, 128], [2, 32, 128]         657,408         657,408
                  Dropout-4                                 [100, 32, 256]               0               0
                   Linear-5                                 [32, 100, 256]           7,453           7,453
   ConditionalRandomField-6            [32, 100, 29], [32, 100], [32, 100]           1,860             899
===========================================================================================================
Total params: 1,989,805
Trainable params: 1,988,844
Non-trainable params: 961
-----------------------------------------------------------------------------------------------------------
training on  cpu
epoch [1]: 100%|██████████| 29/29 [00:26<00:00,  1.09it/s, loss=42.7]
2021-12-17 14:52:37,207 - epoch 1 - loss: 42.6906 acc: 0.2409 - test_acc: 0.1804
…
