--------------------------------------------------------------------------------------------------------------
               Layer (type)                                       Input Shape         Param #     Tr. Param #
==============================================================================================================
                Embedding-1                                        [256, 128]         536,400         536,400
                     LSTM-2     [256, 128, 300], [2, 128, 256], [2, 128, 256]       1,142,784       1,142,784
                  Dropout-3                                   [256, 128, 512]               0               0
                     LSTM-4     [256, 128, 512], [2, 128, 128], [2, 128, 128]         657,408         657,408
                  Dropout-5                                   [256, 128, 256]               0               0
          TimeDistributed-6                                   [128, 256, 256]           3,341           3,341
                  Dropout-7                                    [128, 256, 13]               0               0
   ConditionalRandomField-8            [128, 256, 13], [128, 256], [128, 256]             420             195
==============================================================================================================
Total params: 2,340,353
Trainable params: 2,340,128
Non-trainable params: 225
--------------------------------------------------------------------------------------------------------------
training on  cpu
epoch [1]: 100%|█████████████████████| 38/38 [02:16<00:00,  3.59s/it, loss=65.4]
…
