…
v console: using IPython 7.30.1
Python 3.7.11 (default, Jul 27 2021, 07:03:16)
[Clang 10.0.0 ] on darwin
>>> runfile('/Volumes/Riesling/TRAIN/Torch-base/src/BiLSTM_CRF/main.py', wdir='/Volumes/Riesling/TRAIN/Torch-base/src/BiLSTM_CRF')
-----------------------------------------------------------------------------------------------------------
               Layer (type)                                    Input Shape         Param #     Tr. Param #
===========================================================================================================
                Embedding-1                                      [100, 32]         180,300         180,300
                     LSTM-2     [100, 32, 300], [2, 32, 128], [2, 32, 128]         440,320         440,320
                  Dropout-3                                 [100, 32, 256]               0               0
                     LSTM-4       [100, 32, 256], [2, 32, 64], [2, 32, 64]         164,864         164,864
                  Dropout-5                                 [100, 32, 128]               0               0
                   Linear-6                                 [32, 100, 128]           3,741           3,741
                  Dropout-7                                  [32, 100, 29]               0               0
   ConditionalRandomField-8            [32, 100, 29], [32, 100], [32, 100]           1,860             899
===========================================================================================================
Total params: 791,085
Trainable params: 790,124
Non-trainable params: 961
-----------------------------------------------------------------------------------------------------------
training on  cpu
epoch [1]: 100%|██████████| 29/29 [00:13<00:00,  2.10it/s, loss=53.6]
2021-12-19 16:00:49,539 - epoch 1 - loss: 53.6495 acc: 0.0922 val_loss: 30.0603 val_acc: 0.0821
…
